PythonModel-To-CppArray/sine_model_quantized.tflite (tflite, 2680 bytes, 5 tensors)

sequential/dense/MatMul/ReadVariableOp/transpose f4 [16, 1]
0	0xbda3c590	-0.079966664
1	0x3c387456	0.011258205
2	0xbe0aabe8	-0.1354214
3	0x3e57a997	0.21060787
4	0x3e01aafa	0.12662879
5	0xbe69c44a	-0.22828785
6	0x3e5362bf	0.20643137
7	0xbee641d2	-0.44972092
8	0x3e8288c4	0.2549497
9	0xbee74fda	-0.4517811
10	0x3f198683	0.59970874
11	0x3eedb44d	0.4642662
12	0xbf03bb18	-0.5145736
13	0x3efcb8a1	0.4935961
14	0x3e752030	0.2393806
15	0x3ebba5e2	0.36649996

sequential/dense/MatMul_bias f4 [16]
0	0x00000000	0.0
1	0x3f0b5a87	0.5443501
2	0x00000000	0.0
3	0xbeace3e0	-0.33767605
4	0xbf0e405d	-0.5556696
5	0x00000000	0.0
6	0xbed7eb1f	-0.4217157
7	0x00000000	0.0
8	0xbf1e4694	-0.61826444
9	0x00000000	0.0
10	0x3e0a1f97	0.13488613
11	0x3b1b6148	0.0023709107
12	0x00000000	0.0
13	0xbf5266db	-0.82188195
14	0xbca4b8ba	-0.020107616
15	0x3d133336	0.03593751

sequential/dense_1/MatMul/ReadVariableOp/transpose f4 [16, 16]
0	0xbe93e717	-0.28887245
1	0xbd630eb8	-0.05543396
2	0x3e979ac7	0.29610273
3	0xbed0524c	-0.40687788
4	0xbe6b62dd	-0.22986932
5	0xbe9bfaa8	-0.30464673
6	0x3dd4f334	0.1039795
7	0x3daea3dc	0.085273474
8	0x3e84ee99	0.25963286
9	0x3d820f7c	0.0635061
10	0x3eaf5304	0.34243023
11	0xbe06f73c	-0.1318025
12	0x3e1d6f6a	0.15374532
13	0x3ec1bfa8	0.37841535
14	0x3e92291d	0.28546992
15	0x3e13ca3d	0.14432617
16	0x3ec78e83	0.38975915
17	0x3e44e839	0.19229211
18	0xbd356410	-0.04428488
19	0xbd8c06b1	-0.06837214
20	0xbd8851d8	-0.066562355
21	0x3ebfd0f7	0.37464115
22	0x3ea79259	0.32728842
23	0x3c805740	0.015666604
24	0x3da312ec	0.079625934
25	0xbe2ad996	-0.16684565
26	0x3da9883a	0.08277936
27	0xbeba44a4	-0.36380494
28	0xbdcd6ec0	-0.100308895
29	0xbeb0c760	-0.3452711
30	0xbd565161	-0.052323703
31	0xbf03883f	-0.5137977
32	0xbdec0d84	-0.115260154
33	0x3e90d0f1	0.2828441
34	0x3e05a7d2	0.130523
35	0xbe1d8341	-0.153821
36	0xbf49f2e1	-0.7888623
37	0xbe0ae460	-0.1356368
38	0xbf661d54	-0.898885
39	0x3ec0d0f5	0.37659422
40	0xbf8c9539	-1.0983039
41	0x3e8fc9ab	0.28083548
42	0xbd0f4d04	-0.034985557
43	0x3e93184a	0.2872947
44	0xbe3cc3bb	-0.1843404
45	0xbed8a3d3	-0.42312488
46	0x3b4c9485	0.0031216454
47	0x3ec422fc	0.3830794
48	0x3e5652d2	0.20930031
49	0xbf0b3699	-0.54380184
50	0xbe562323	-0.20911841
51	0x3e83fc56	0.25778455
52	0x3ef4e8cc	0.4783386
53	0xbe2d0d0a	-0.16899505
54	0x3e6d7a4b	0.23191182
55	0x3d3747c0	0.04474616
56	0x3ef39aa1	0.4757891
57	0x3e65e11a	0.2244915
58	0x3e5718ca	0.2100555
59	0xbd40dfcf	-0.04708844
60	0x3d0bada8	0.03410116
61	0x3ec6a2a4	0.3879596
62	0x3d9531ab	0.07284864
63	0x3e14f953	0.14548235
64	0x3e774c66	0.24150237
65	0xbf1d2b19	-0.61393887
66	0x3eb3f1b5	0.35145345
67	0x3e498f6e	0.1968362
68	0x3f52e0a3	0.8237402
69	0xbe6afbab	-0.22947566
70	0xbe8c9fab	-0.27465567
71	0x3e5034c6	0.20332631
72	0x3ef138f9	0.4711378
73	0x3e8f74e7	0.28018877
74	0x3e8f7964	0.280223
75	0xbd24baf6	-0.040217362
76	0xbdfe1300	-0.12405968
77	0x3ed9893a	0.42487508
78	0x3e54e89b	0.20791857
79	0x3e8f05ff	0.27934262
80	0xbed457e3	-0.41473302
81	0x3f0aabea	0.5416857
82	0x3ebbeb4b	0.36702952
83	0xbe6bae00	-0.23015594
84	0xbc3fa03b	-0.011695917
85	0x3ead4d17	0.33847877
86	0x3d5c53b0	0.053790748
87	0x3a266200	0.00063470006
88	0xbe06f2f2	-0.13178614
89	0xbd19d668	-0.03755799
90	0xbeb7fcb0	-0.35934973
91	0xbf139642	-0.5765115
92	0xbe831850	-0.25604486
93	0xbea32218	-0.3186195
94	0xbf46280c	-0.77404857
95	0x3e059181	0.13043787
96	0x3e4e4a0a	0.20145431
97	0xbf2c7dff	-0.67379755
98	0xbd401508	-0.046895057
99	0xbd6e01a3	-0.05810703
100	0x3f7a87cc	0.9786346
101	0xbd4634e0	-0.04839027
102	0xbde03991	-0.1094848
103	0x3e3f1c5a	0.18663159
104	0x3e2b13c5	0.1670676
105	0xbe94fd1c	-0.29099357
106	0xbe74c23b	-0.23902218
107	0x3e0896cc	0.13338774
108	0xbe328c8c	-0.17436427
109	0x3f015075	0.5051339
110	0x3e9e6a30	0.3094039
111	0xbded3026	-0.11581449
112	0xbd730298	-0.059328645
113	0x3c267760	0.010160297
114	0x3e8f5fcb	0.28002772
115	0x3e59838d	0.21241589
116	0xbea8a23e	-0.3293628
117	0x3ec2093b	0.37897667
118	0x3d91a177	0.07110875
119	0xbe0e1656	-0.13875708
120	0x3ed28d86	0.411236
121	0x3d93fa1c	0.07225439
122	0xbd7f218c	-0.062287852
123	0xbdec9313	-0.1155149
124	0xbea75b40	-0.32686806
125	0x3e904d12	0.281838
126	0xbe032d6b	-0.12810294
127	0xbecb5793	-0.3971525
128	0x3dddd834	0.10832253
129	0x3e97bd7f	0.29636762
130	0xbe20310a	-0.15643707
131	0x3d92bb74	0.0716466
132	0xbe1d6d7c	-0.15373796
133	0xbed47d08	-0.4150164
134	0xbf1eb508	-0.6199498
135	0x3e041362	0.12898019
136	0xbf92de77	-1.1474141
137	0x3eaaa0ff	0.33325955
138	0x3e305f4e	0.17223856
139	0x3e187b98	0.14890897
140	0xbdf3e8f8	-0.1190967
141	0xbea33454	-0.3187586
142	0x3d3b3588	0.04570535
143	0x3d46fa99	0.048578832
144	0xbc4a15c0	-0.012334287
145	0xbe55af94	-0.20867759
146	0x3eb35c7b	0.35031494
147	0xbdf6e7a0	-0.12055898
148	0x3e4b1a16	0.1983417
149	0x3ed65a3d	0.4186572
150	0x3ed6c7bd	0.41949263
151	0xbdd68c34	-0.104759604
152	0xbd7d46c8	-0.06183508
153	0xbc81ead0	-0.015859038
154	0xbe90dda4	-0.28294098
155	0xbc000e80	-0.007815957
156	0x3e99f879	0.30072382
157	0xbebd8c03	-0.37020883
158	0x3d8f0d64	0.06984976
159	0xbe829a52	-0.25508362
160	0x3ba7aac0	0.0051167905
161	0xbe3b1fa0	-0.18273783
162	0xbdc00364	-0.09375647
163	0xbea12e60	-0.31480694
164	0x3eb96431	0.36209252
165	0x3e9d0893	0.30670604
166	0xbe201a08	-0.1563493
167	0xbdb2b5f4	-0.08726111
168	0xbe3438f6	-0.17599854
169	0xbe8146b6	-0.2524926
170	0xbea34240	-0.31886482
171	0x3deebd14	0.116571575
172	0xbe5aa2de	-0.21351191
173	0xbe105b02	-0.14097217
174	0xbc91dc30	-0.017805189
175	0x3c80d850	0.015728146
176	0x3e064572	0.13112429
177	0xbd7fddac	-0.062467262
178	0x3e7a2632	0.24428633
179	0x3edcc352	0.43117768
180	0x3f4538ef	0.7704
181	0x3da0d354	0.07852808
182	0x3f0941b7	0.536159
183	0x3e3cde92	0.18444279
184	0x3d0500ef	0.032471593
185	0x3da5e6ec	0.081006855
186	0xbb910221	-0.0044253026
187	0x3af3a9de	0.0018590053
188	0x3dacebc4	0.08443406
189	0xbd97b204	-0.07407001
190	0xbe03cfbc	-0.12872213
191	0x3e0ad4c6	0.13557729
192	0xbe512b3e	-0.20426652
193	0xbe4ce56d	-0.20009394
194	0xbe4f8190	-0.20264268
195	0x3e2e6e82	0.17034343
196	0x3e1f78f2	0.1557348
197	0xbe68d1ed	-0.2273633
198	0xbeadd294	-0.3394972
199	0xbe8373f2	-0.25674397
200	0x3ed05917	0.4069297
201	0xbd8f894c	-0.07008609
202	0x3d74316a	0.059617437
203	0xbebeaf5e	-0.3724317
204	0x3e8cc257	0.2749202
205	0xbd9d0e22	-0.07668711
206	0xbe6393d2	-0.22224358
207	0x3c00b9a0	0.007856756
208	0x3eb8aa4b	0.36067423
209	0xbe9521c5	-0.29127327
210	0x3ea8f411	0.32998708
211	0x3d1d9626	0.03847327
212	0xbf184e15	-0.59494144
213	0xbe5fd8ed	-0.21860094
214	0xbea8442a	-0.32864505
215	0x3e3e1d6e	0.18565914
216	0xbf1509c2	-0.58218014
217	0x3dc26f5c	0.09493896
218	0x3eea6be2	0.45785433
219	0x3ec2285f	0.37921426
220	0xbdde84a8	-0.10865146
221	0x3d955f48	0.07293564
222	0x3ee4cce0	0.44687557
223	0xbe44a33b	-0.19202892
224	0xbe8cbe6b	-0.27489027
225	0x3eebeb1a	0.46077806
226	0xbe823948	-0.25434327
227	0x3c03a6fc	0.008035418
228	0x3e04188f	0.12899993
229	0x3eb57569	0.3544114
230	0xbdf4ab10	-0.1194669
231	0x3e919c7b	0.28439698
232	0xbe33ccec	-0.1755864
233	0xbe361576	-0.17781624
234	0xbdcab037	-0.098968916
235	0xbf0abad2	-0.54191315
236	0x3c653280	0.013989091
237	0x3da50d46	0.08059172
238	0x3e2a292c	0.16617268
239	0xbf06db74	-0.5267861
240	0x3dee224c	0.11627635
241	0xbef1d341	-0.47231486
242	0x3dfde57c	0.12397286
243	0xbedfa7c3	-0.4368268
244	0x3f5f723b	0.87283677
245	0xbe548010	-0.20751977
246	0xbe0b187d	-0.1358356
247	0xbe8d036a	-0.27541667
248	0x3e6cfdbc	0.23143667
249	0x3e99e5fd	0.3005828
250	0x3d27dc97	0.040981855
251	0x3e9ef48c	0.3104595
252	0xbe33b244	-0.17548472
253	0x3eb6bf89	0.35693005
254	0x3d917c1c	0.0710375
255	0xbcd8e530	-0.026476473

sequential/dense_1/MatMul_bias f4 [16]
0	0x3df79afb	0.12090107
1	0xbdbe754f	-0.092997186
2	0x3e851266	0.259906
3	0xbeb0e750	-0.34551477
4	0xbe9cdd52	-0.30637604
5	0x3ed5c6b4	0.4175316
6	0xbeb266e3	-0.3484412
7	0xbb215a35	-0.0024620418
8	0x3eb0c859	0.34527853
9	0x00000000	0.0
10	0x00000000	0.0
11	0xbeba46ee	-0.3638224
12	0xbb4f39e5	-0.0031620201
13	0x3d11f0fd	0.035630215
14	0x3d273bec	0.04082863
15	0xbe7865ec	-0.2425763

sequential/dense_2/MatMul/ReadVariableOp/transpose f4 [1, 16]
0	0xbea13a49	-0.3148978
1	0x3e0ea9c0	0.13931942
2	0x3fa831c5	1.3140188
3	0x3e433484	0.19063002
4	0x3e83cfdc	0.25744522
5	0xbf5eb263	-0.86990947
6	0x3fcae22e	1.5850275
7	0xbdb7aee0	-0.08968902
8	0x3f74f2dd	0.9568308
9	0x3e1ea660	0.15493155
10	0xbf0296b8	-0.5101123
11	0x3f2ec1fc	0.68264747
12	0x3e6b0ed8	0.22954881
13	0xbf1ffffa	-0.62499964
14	0xbecc049a	-0.3984726
15	0x3e3b6c15	0.18302949
