hello_world_tensorflow/main/tf_lite_model(1).tflite (tflite, 280176 bytes, 8 tensors)

sequential_1/dense_4/MatMul/ReadVariableOp/transpose i1 [256, 784] scale=0.005525387 zero_point=0
0	0xf7	-0.049728483
1	0xef	-0.09393158
2	0xec	-0.11050774
3	0x03	0.01657616
4	0x02	0.011050774
5	0xf3	-0.07183003
6	0xf9	-0.038677707
7	0xf3	-0.07183003
8	0xf5	-0.060779255
9	0xe7	-0.13813467
10	0xc8	-0.30942166
11	0xdf	-0.18233776
12	0xf3	-0.07183003
13	0x25	0.20443931
14	0x2d	0.24864241
15	0x17	0.1270839
16	0xfa	-0.03315232
17	0xe9	-0.1270839
18	0xdb	-0.20443931
19	0xec	-0.11050774
20	0xf1	-0.0828808
21	0xf6	-0.05525387
22	0xf4	-0.06630464
23	0xfb	-0.027626935
24	0x0a	0.05525387
25	0x05	0.027626935
26	0xee	-0.099456966
27	0x0c	0.06630464
28	0x06	0.03315232
29	0x01	0.005525387
30	0x10	0.08840619
31	0x16	0.12155851
32	0x0b	0.060779255
33	0x00	0.0
34	0xef	-0.09393158
35	0xca	-0.2983709
36	0xcb	-0.29284552
37	0xc6	-0.32047245
38	0xcc	-0.2873201
39	0xf4	-0.06630464
40	0xf4	-0.06630464
41	0xf2	-0.077355415
42	0xf0	-0.08840619
43	0x08	0.044203095
44	0x0f	0.0828808
45	0xff	-0.005525387
46	0xde	-0.18786316
47	0xde	-0.18786316
48	0xdd	-0.19338854
49	0xef	-0.09393158
50	0x01	0.005525387
51	0x04	0.022101548
52	0x08	0.044203095
53	0x0e	0.077355415
54	0x03	0.01657616
55	0x03	0.01657616
56	0xfd	-0.01657616
57	0x06	0.03315232
58	0xfe	-0.011050774
59	0x0d	0.07183003
60	0xf2	-0.077355415
61	0xef	-0.09393158
62	0xe3	-0.16023622
63	0xd2	-0.2541678
64	0xaf	-0.44755635
65	0xc3	-0.3370486
66	0xde	-0.18786316
67	0xf3	-0.07183003
68	0xfc	-0.022101548
69	0xf2	-0.077355415
70	0xd6	-0.23206624
71	0xf6	-0.05525387
72	0x04	0.022101548
73	0xee	-0.099456966
74	0xe4	-0.15471083
75	0xd1	-0.25969318
76	0xcc	-0.2873201
77	0xd2	-0.2541678
78	0xde	-0.18786316
79	0x02	0.011050774
80	0x04	0.022101548
81	0x06	0.03315232
82	0x02	0.011050774
83	0xfc	-0.022101548
84	0xfe	-0.011050774
85	0x03	0.01657616
86	0x10	0.08840619
87	0x03	0.01657616
88	0xf7	-0.049728483
89	0xf7	-0.049728483
90	0xdf	-0.18233776
91	0xd2	-0.2541678
92	0xdc	-0.19891393
93	0xe4	-0.15471083
94	0x01	0.005525387
95	0xfd	-0.01657616
96	0xf3	-0.07183003
97	0xf3	-0.07183003
98	0xd3	-0.24864241
99	0xe6	-0.14366005
100	0xf4	-0.06630464
101	0xf5	-0.060779255
102	0xeb	-0.11603312
103	0xe2	-0.1657616
104	0xd1	-0.25969318
105	0xdb	-0.20443931
106	0xec	-0.11050774
107	0xf6	-0.05525387
108	0xf4	-0.06630464
109	0x0a	0.05525387
110	0x07	0.038677707
111	0x0b	0.060779255
112	0x03	0.01657616
113	0x0c	0.06630464
114	0x22	0.18786316
115	0x03	0.01657616
116	0xf6	-0.05525387
117	0xed	-0.104982354
118	0xde	-0.18786316
119	0xd8	-0.22101548
120	0xe3	-0.16023622
121	0xfe	-0.011050774
122	0x02	0.011050774
123	0xed	-0.104982354
124	0x03	0.01657616
125	0xeb	-0.11603312
126	0xe9	-0.1270839
127	0xec	-0.11050774
128	0xf9	-0.038677707
129	0xfa	-0.03315232
130	0xeb	-0.11603312
131	0xf4	-0.06630464
132	0xe8	-0.13260928
133	0xde	-0.18786316
134	0xed	-0.104982354
135	0xf6	-0.05525387
136	0x02	0.011050774
137	0x07	0.038677707
138	0x1b	0.14918545
139	0x0f	0.0828808
140	0x01	0.005525387
141	0x0d	0.07183003
142	0x1a	0.14366005
143	0xf4	-0.06630464
144	0xf4	-0.06630464
145	0xfd	-0.01657616
146	0xe5	-0.14918545
147	0xeb	-0.11603312
148	0xe3	-0.16023622
149	0x05	0.027626935
150	0xf7	-0.049728483
151	0xfa	-0.03315232
152	0xf6	-0.05525387
153	0xee	-0.099456966
154	0xec	-0.11050774
155	0xfe	-0.011050774
156	0xf7	-0.049728483
157	0xf5	-0.060779255
158	0xf7	-0.049728483
159	0xfa	-0.03315232
160	0xea	-0.12155851
161	0xf8	-0.044203095
162	0x01	0.005525387
163	0x06	0.03315232
164	0x01	0.005525387
165	0x03	0.01657616
166	0x09	0.049728483
167	0x0a	0.05525387
168	0x06	0.03315232
169	0x00	0.0
170	0x0c	0.06630464
171	0xf4	-0.06630464
172	0xf5	-0.060779255
173	0x03	0.01657616
174	0xf6	-0.05525387
175	0xf2	-0.077355415
176	0xff	-0.005525387
177	0xf7	-0.049728483
178	0xf1	-0.0828808
179	0xf1	-0.0828808
180	0x01	0.005525387
181	0xe8	-0.13260928
182	0xd1	-0.25969318
183	0xf5	-0.060779255
184	0xf7	-0.049728483
185	0xf8	-0.044203095
186	0xe7	-0.13813467
187	0xe8	-0.13260928
188	0xfe	-0.011050774
189	0xec	-0.11050774
190	0xff	-0.005525387
191	0xf7	-0.049728483
192	0xee	-0.099456966
193	0x00	0.0
194	0xfa	-0.03315232
195	0xf4	-0.06630464
196	0xf3	-0.07183003
197	0xfb	-0.027626935
198	0xf2	-0.077355415
199	0xf8	-0.044203095
200	0xf2	-0.077355415
201	0x05	0.027626935
202	0xe4	-0.15471083
203	0xfa	-0.03315232
204	0x00	0.0
205	0x05	0.027626935
206	0xfd	-0.01657616
207	0xed	-0.104982354
208	0x09	0.049728483
209	0xe1	-0.171287
210	0xf2	-0.077355415
211	0xed	-0.104982354
212	0x00	0.0
213	0xf7	-0.049728483
214	0xec	-0.11050774
215	0x03	0.01657616
216	0xee	-0.099456966
217	0xf9	-0.038677707
218	0xf2	-0.077355415
219	0xf3	-0.07183003
220	0xec	-0.11050774
221	0xf1	-0.0828808
222	0xeb	-0.11603312
223	0xfd	-0.01657616
224	0x09	0.049728483
225	0xfb	-0.027626935
226	0x0a	0.05525387
227	0xf6	-0.05525387
228	0x11	0.09393158
229	0xfb	-0.027626935
230	0xf2	-0.077355415
231	0xfc	-0.022101548
232	0x00	0.0
233	0x0b	0.060779255
234	0x12	0.099456966
235	0xfa	-0.03315232
236	0xf1	-0.0828808
237	0xe7	-0.13813467
238	0xf1	-0.0828808
239	0xe4	-0.15471083
240	0xf2	-0.077355415
241	0xf6	-0.05525387
242	0x05	0.027626935
243	0x05	0.027626935
244	0xf1	-0.0828808
245	0xfc	-0.022101548
246	0xea	-0.12155851
247	0xe5	-0.14918545
248	0xe9	-0.1270839
249	0xea	-0.12155851
250	0x05	0.027626935
251	0x08	0.044203095
252	0x1b	0.14918545
253	0x17	0.1270839
254	0xfd	-0.01657616
255	0x0a	0.05525387

sequential_1/dense_4/MatMul_bias f4 [256]
0	0xbd3a2952	-0.045449562
1	0x3da197b1	0.07890261
2	0x3e0167c1	0.12637235
3	0xbb97d828	-0.004633922
4	0xbe676014	-0.22595245
5	0x3d404337	0.0469391
6	0xbd9b47cc	-0.075820535
7	0xbe6e17ab	-0.23251216
8	0xbe4495cf	-0.19197772
9	0xbd03dcb6	-0.03219291
10	0x3e221c4d	0.15831108
11	0x3c1eb028	0.009685554
12	0xbdd3bcfe	-0.10338782
13	0xbe8f4fb1	-0.27990487
14	0x3afbfd5b	0.0019225286
15	0x3e10ef70	0.14153838
16	0xbb22633a	-0.0024778382
17	0x3e288250	0.1645596
18	0xbdf59b43	-0.119925044
19	0xbdd1cd83	-0.102442764
20	0xbda51786	-0.08061127
21	0x3dcf37f7	0.10118096
22	0x3d1047c0	0.035224676
23	0xbd4e1e4e	-0.05032187
24	0x3e102aef	0.14078878
25	0x3e6c787f	0.2309284
26	0xbdcbaaec	-0.0994471
27	0xbdcf84e1	-0.101327665
28	0x3ce32a6f	0.027730195
29	0xbe806d5b	-0.25083432
30	0xbdfd34c9	-0.123635836
31	0xbdc70e4a	-0.09719522
32	0xbe789a8e	-0.24277708
33	0xbda60f93	-0.08108439
34	0xbb811235	-0.003938938
35	0xbdad15df	-0.08451437
36	0x3e2618c7	0.1622039
37	0x3dd3d8bd	0.10344074
38	0xbc23bf3c	-0.009994324
39	0xbe00456c	-0.12526482
40	0xbd6b8559	-0.057500217
41	0xbc51cafa	-0.012804741
42	0x3e93599f	0.28779313
43	0xbe351560	-0.17683935
44	0x3e475c8d	0.19468899
45	0x3db218ca	0.086961344
46	0x3e0f8c09	0.14018263
47	0xbdcb5562	-0.09928395
48	0xbc90863c	-0.017642133
49	0xbe7c27e5	-0.24624594
50	0xbdee15b2	-0.11625232
51	0xbec72b1c	-0.38900077
52	0xbe327f1f	-0.17431305
53	0x3e896e79	0.26842096
54	0x3e3dc611	0.18532588
55	0x3e0c7348	0.13715851
56	0xbe8a0cbe	-0.26962847
57	0x3e4e0571	0.20119263
58	0x3e44f287	0.19233142
59	0x3e0dbe2b	0.13842075
60	0x3e10ead4	0.1415208
61	0x3e466cc9	0.19377436
62	0xbe41d17c	-0.18927568
63	0xbe0a03bc	-0.13477987
64	0xbddf6f06	-0.10909848
65	0x3db30e25	0.08742932
66	0x3d5736d9	0.05254254
67	0xbe77a936	-0.24185643
68	0x3e4ea3c7	0.20179664
69	0xbc92ed8d	-0.017935539
70	0x3e3b8032	0.18310621
71	0xbb584ebc	-0.0033005914
72	0xbe9edf7f	-0.3102989
73	0x3d7e673b	0.062110167
74	0xbe624ce3	-0.22099642
75	0x3e3eacc8	0.18620598
76	0xbd9c174a	-0.076216295
77	0xbd0e49a2	-0.03473819
78	0x3b01257f	0.0019706187
79	0x3d3a9a53	0.04555733
80	0x3d2c6dbe	0.042096846
81	0x3e30080e	0.17190573
82	0x3e0db977	0.1384028
83	0xbdaa009d	-0.08300898
84	0xbdaf50d4	-0.085603386
85	0xbea65015	-0.32482973
86	0x3cbc2df0	0.022971123
87	0x3c39bddd	0.011336771
88	0x3e066c7f	0.13127325
89	0x3e32357a	0.17403212
90	0xbe21bd23	-0.15794806
91	0x3df180ff	0.11792182
92	0x3d06f3ec	0.032947466
93	0x3d9cb3b2	0.07651462
94	0xbe023e4b	-0.12719075
95	0xbdd0fe1d	-0.10204718
96	0xbcd9d643	-0.026591426
97	0x3c13514d	0.008991552
98	0xbe9fea50	-0.31233454
99	0x3e606592	0.21913746
100	0x3ddc6d18	0.107629955
101	0x3e1b7b4b	0.15183751
102	0x3db2c6a2	0.087292925
103	0xbe496744	-0.19668299
104	0x3e04f491	0.1298392
105	0x3de73395	0.11289135
106	0x3e2765fe	0.163475
107	0x3d8ded9f	0.06930088
108	0xbdbcf44c	-0.092262834
109	0x3e602b8c	0.21891612
110	0x3db9515e	0.09048723
111	0xbe0d25e3	-0.13783984
112	0x3e2c13f0	0.1680448
113	0xbd7197d0	-0.05898267
114	0xbde618cc	-0.112351984
115	0x3bedecde	0.007260903
116	0x3dcea704	0.100904495
117	0x3e625900	0.22104263
118	0xbc61a8d1	-0.013773159
119	0x3dc73384	0.09726623
120	0x3d3a799f	0.045526143
121	0x3d8509dc	0.06496021
122	0xbcff30b1	-0.031151148
123	0x3bc931d6	0.006139974
124	0x3cbb072d	0.02283057
125	0x3c158ebf	0.009128272
126	0x3e75127e	0.23932835
127	0x3e1fa2e2	0.15589479
128	0x3dfc79b4	0.123279005
129	0x3e2c39af	0.1681888
130	0xbb7efd94	-0.0038908469
131	0xbe04d055	-0.12970097
132	0x3da962ac	0.08270773
133	0x3db0d087	0.086335234
134	0xbcd7525e	-0.026284393
135	0xbdc6bbf4	-0.09703818
136	0xbed5bad7	-0.4174411
137	0x3cb35b1c	0.02189403
138	0x3b7145b6	0.0036815233
139	0xbc478ccd	-0.012179566
140	0x3d01782e	0.031608753
141	0x3d4f7841	0.050651792
142	0xbcb2830e	-0.021791007
143	0x3dd82563	0.10554006
144	0xbc2d5bdf	-0.010580986
145	0xbe4f649b	-0.20253222
146	0xbe171a5b	-0.14756148
147	0x3e1ce46f	0.15321516
148	0xbe5a8c7c	-0.21342653
149	0xbc4608a1	-0.012087018
150	0xbe97fd3e	-0.29685396
151	0x3d0233fb	0.031787854
152	0xbbdcf2dd	-0.0067428187
153	0x3df3df2a	0.119077995
154	0x3d811009	0.063018866
155	0x3de4843d	0.11158035
156	0x3daffefd	0.08593557
157	0xbde71aeb	-0.11284431
158	0xbd1cbf34	-0.038268283
159	0x3ce82dad	0.028342092
160	0x3e7a4116	0.24438891
161	0x3e1897b8	0.14901626
162	0x3e4eec7f	0.20207404
163	0x3d1d42c7	0.038393762
164	0xbc3e9868	-0.011633016
165	0xbc87eb32	-0.016591642
166	0x3d88b8b1	0.06675852
167	0x3d3b08d7	0.045662727
168	0x3d5a8ed4	0.053358868
169	0x3dd6a1e9	0.10480101
170	0xbc150f00	-0.009097815
171	0xbe828e1d	-0.2549905
172	0x3e88e180	0.26734543
173	0x3c6e22a0	0.014534622
174	0x3e01aa99	0.12662734
175	0xbd7ffe3f	-0.062498327
176	0x3e715bbd	0.23570152
177	0x3ce25db6	0.027632575
178	0x3e0781a7	0.13233052
179	0x3e3fda73	0.18735676
180	0xbd262d09	-0.040570293
181	0x3e080afe	0.13285443
182	0xbe1ddad9	-0.15415515
183	0xbd1f37a4	-0.038871422
184	0x3cb5f59f	0.022211848
185	0x3e047c64	0.12938076
186	0xbe32b688	-0.17452443
187	0x3bda74ff	0.006666779
188	0x3d684f15	0.056716044
189	0xbdd6c88e	-0.104874715
190	0x3d0264e7	0.03183451
191	0xbd70a5b5	-0.05875178
192	0xbdf77424	-0.12082699
193	0x3e43cfd7	0.19122253
194	0xbe337c3a	-0.17527857
195	0xbd66020e	-0.056154303
196	0x3dcda58e	0.10041343
197	0x3c55a5c6	0.013040012
198	0x3dc09e37	0.09405177
199	0xbda21200	-0.079135895
200	0xbdc0a332	-0.09406127
201	0xbe1c9363	-0.15290599
202	0xbe32d605	-0.17464454
203	0x3dea6a75	0.11446086
204	0x3b890af8	0.004182216
205	0x3dac6f2e	0.08419643
206	0xbc9341b4	-0.017975666
207	0x3daf2fe2	0.08554055
208	0xbdbea740	-0.09309244
209	0xbd0e55de	-0.034749858
210	0xbd8aa88a	-0.067704275
211	0x3dc02365	0.09381751
212	0x3b6cfa0e	0.0036159786
213	0x3e150a17	0.1455463
214	0x3d9cfda5	0.07665566
215	0xbdb7463c	-0.08948943
216	0xbda9eb83	-0.082968734
217	0x3d6cc730	0.057807148
218	0x3e0549da	0.13016453
219	0x3de4d499	0.11173362
220	0x3e1302a1	0.14356472
221	0x3d2e101c	0.04249583
222	0x3e6b2588	0.22963536
223	0xbcb52edc	-0.02211707
224	0xbdc6dab2	-0.097096816
225	0xbdc65fab	-0.09686216
226	0xbd90ae1a	-0.07064457
227	0x3cc0a0ef	0.02351424
228	0x3cf09e0c	0.029372238
229	0xbe0daff0	-0.13836646
230	0x3d0cae41	0.03434587
231	0x3e0e9d50	0.13927197
232	0xbe3c1f5a	-0.18371335
233	0xbe3c822f	-0.18409036
234	0x3e8f9359	0.28042105
235	0x3e0956f2	0.13412073
236	0x3d8eb348	0.06967789
237	0x3e326493	0.17421179
238	0x3dbf74ce	0.093484506
239	0xbcdafe5f	-0.026732622
240	0x3df93f8e	0.12170325
241	0x3de3a64b	0.11115702
242	0x3d29779b	0.04137383
243	0xbe36fbc5	-0.1786948
244	0xbe291694	-0.16512519
245	0x3e982260	0.29713726
246	0x3df022f0	0.11725414
247	0x3e0b2fc6	0.13592443
248	0xbc694e92	-0.014239924
249	0xbe2bcd21	-0.16777469
250	0xbd99a11f	-0.075014345
251	0x3dfc07c3	0.12306168
252	0x3da33dce	0.07970773
253	0x3e4d4ba0	0.2004838
254	0xbcc413bb	-0.02393519
255	0x3e2a39a2	0.16623548

sequential_1/dense_5/MatMul/ReadVariableOp/transpose i1 [192, 256] scale=0.003955662 zero_point=0
0	0xe1	-0.122625515
1	0x1d	0.11471419
2	0xf4	-0.04746794
3	0xec	-0.07911324
4	0xfd	-0.011866985
5	0x03	0.011866985
6	0x05	0.01977831
7	0x19	0.09889154
8	0xcb	-0.20965007
9	0xf7	-0.035600957
10	0xd7	-0.16218214
11	0xec	-0.07911324
12	0x07	0.027689632
13	0xdc	-0.14240383
14	0xda	-0.15031515
15	0xce	-0.19778308
16	0xf1	-0.059334926
17	0xdb	-0.14635949
18	0xf6	-0.03955662
19	0xf8	-0.031645294
20	0xba	-0.27689633
21	0xf5	-0.04351228
22	0xe5	-0.106802866
23	0x0a	0.03955662
24	0x37	0.2175614
25	0xe3	-0.11471419
26	0x0a	0.03955662
27	0x0b	0.04351228
28	0x1a	0.1028472
29	0xf5	-0.04351228
30	0xdd	-0.13844816
31	0xdc	-0.14240383
32	0xcd	-0.20173874
33	0x09	0.035600957
34	0xf5	-0.04351228
35	0xe1	-0.122625515
36	0x14	0.07911324
37	0xfc	-0.015822647
38	0x07	0.027689632
39	0x03	0.011866985
40	0xf5	-0.04351228
41	0xde	-0.1344925
42	0x0c	0.04746794
43	0x07	0.027689632
44	0x30	0.18987176
45	0x0a	0.03955662
46	0x22	0.1344925
47	0xf4	-0.04746794
48	0xc6	-0.22942838
49	0xc5	-0.23338404
50	0xed	-0.075157575
51	0x05	0.01977831
52	0xdf	-0.13053684
53	0x2d	0.17800479
54	0x20	0.12658118
55	0xeb	-0.0830689
56	0x03	0.011866985
57	0x0e	0.055379264
58	0xfd	-0.011866985
59	0x06	0.02373397
60	0xd1	-0.18591611
61	0x34	0.2056944
62	0xfb	-0.01977831
63	0xec	-0.07911324
64	0xf2	-0.055379264
65	0xeb	-0.0830689
66	0xc4	-0.2373397
67	0xe2	-0.11866985
68	0x4b	0.29667464
69	0x1a	0.1028472
70	0xe0	-0.12658118
71	0x03	0.011866985
72	0xfa	-0.02373397
73	0x33	0.20173874
74	0xdc	-0.14240383
75	0x16	0.08702456
76	0xf5	-0.04351228
77	0x0c	0.04746794
78	0xdf	-0.13053684
79	0xf0	-0.06329059
80	0x05	0.01977831
81	0xf0	-0.06329059
82	0x12	0.07120191
83	0x1a	0.1028472
84	0xcd	-0.20173874
85	0x09	0.035600957
86	0xc6	-0.22942838
87	0xfe	-0.007911324
88	0x08	0.031645294
89	0x1d	0.11471419
90	0x09	0.035600957
91	0xec	-0.07911324
92	0xe6	-0.1028472
93	0xe9	-0.090980224
94	0xed	-0.075157575
95	0xe2	-0.11866985
96	0xde	-0.1344925
97	0xf7	-0.035600957
98	0xfe	-0.007911324
99	0xcc	-0.2056944
100	0x12	0.07120191
101	0xe2	-0.11866985
102	0xe4	-0.11075853
103	0x06	0.02373397
104	0xcd	-0.20173874
105	0x13	0.075157575
106	0xf0	-0.06329059
107	0x07	0.027689632
108	0x26	0.15031515
109	0xb2	-0.30854163
110	0xf7	-0.035600957
111	0x0d	0.0514236
112	0x4b	0.29667464
113	0x21	0.13053684
114	0x08	0.031645294
115	0xe2	-0.11866985
116	0xe6	-0.1028472
117	0x1a	0.1028472
118	0x16	0.08702456
119	0xc7	-0.22547272
120	0x23	0.13844816
121	0xf5	-0.04351228
122	0xf5	-0.04351228
123	0xb6	-0.29271898
124	0x06	0.02373397
125	0x00	0.0
126	0xd6	-0.1661378
127	0x01	0.003955662
128	0x19	0.09889154
129	0x0c	0.04746794
130	0x0a	0.03955662
131	0x01	0.003955662
132	0xf4	-0.04746794
133	0x0c	0.04746794
134	0xfe	-0.007911324
135	0x1e	0.11866985
136	0xe7	-0.09889154
137	0x21	0.13053684
138	0xf7	-0.035600957
139	0x15	0.0830689
140	0xf4	-0.04746794
141	0xf4	-0.04746794
142	0xe8	-0.09493588
143	0xe6	-0.1028472
144	0x11	0.06724625
145	0x23	0.13844816
146	0xef	-0.06724625
147	0xda	-0.15031515
148	0xfb	-0.01977831
149	0x1a	0.1028472
150	0xeb	-0.0830689
151	0xea	-0.08702456
152	0x17	0.090980224
153	0xf6	-0.03955662
154	0xe8	-0.09493588
155	0xf7	-0.035600957
156	0x06	0.02373397
157	0x09	0.035600957
158	0x0a	0.03955662
159	0x10	0.06329059
160	0xe9	-0.090980224
161	0xf6	-0.03955662
162	0x0a	0.03955662
163	0x52	0.32436427
164	0x26	0.15031515
165	0xf7	-0.035600957
166	0x2b	0.17009346
167	0xf8	-0.031645294
168	0xf9	-0.027689632
169	0x02	0.007911324
170	0xf3	-0.0514236
171	0x15	0.0830689
172	0xed	-0.075157575
173	0x09	0.035600957
174	0x23	0.13844816
175	0xfb	-0.01977831
176	0x16	0.08702456
177	0xf8	-0.031645294
178	0x28	0.15822648
179	0xec	-0.07911324
180	0xe3	-0.11471419
181	0x1a	0.1028472
182	0xf8	-0.031645294
183	0x1c	0.11075853
184	0xf4	-0.04746794
185	0xf3	-0.0514236
186	0xec	-0.07911324
187	0xfd	-0.011866985
188	0xfe	-0.007911324
189	0x15	0.0830689
190	0x38	0.22151706
191	0xea	-0.08702456
192	0x1f	0.122625515
193	0xe4	-0.11075853
194	0x15	0.0830689
195	0xe5	-0.106802866
196	0xeb	-0.0830689
197	0x10	0.06329059
198	0x02	0.007911324
199	0x06	0.02373397
200	0xf9	-0.027689632
201	0x10	0.06329059
202	0x24	0.14240383
203	0xe2	-0.11866985
204	0x07	0.027689632
205	0xf4	-0.04746794
206	0xf0	-0.06329059
207	0x04	0.015822647
208	0xd7	-0.16218214
209	0xe3	-0.11471419
210	0xee	-0.07120191
211	0xd2	-0.18196045
212	0xf8	-0.031645294
213	0x32	0.19778308
214	0xdd	-0.13844816
215	0x18	0.09493588
216	0x08	0.031645294
217	0xe4	-0.11075853
218	0x14	0.07911324
219	0xdd	-0.13844816
220	0x28	0.15822648
221	0x15	0.0830689
222	0xf4	-0.04746794
223	0x0b	0.04351228
224	0xfd	-0.011866985
225	0xde	-0.1344925
226	0x09	0.035600957
227	0xe2	-0.11866985
228	0x0b	0.04351228
229	0x21	0.13053684
230	0x00	0.0
231	0x24	0.14240383
232	0xd2	-0.18196045
233	0x18	0.09493588
234	0xd5	-0.17009346
235	0x15	0.0830689
236	0xdd	-0.13844816
237	0x19	0.09889154
238	0x06	0.02373397
239	0x1e	0.11866985
240	0x13	0.075157575
241	0x0f	0.059334926
242	0xcc	-0.2056944
243	0xbc	-0.268985
244	0x05	0.01977831
245	0xd3	-0.17800479
246	0xd7	-0.16218214
247	0xff	-0.003955662
248	0x14	0.07911324
249	0xe3	-0.11471419
250	0xdd	-0.13844816
251	0x04	0.015822647
252	0x2b	0.17009346
253	0x05	0.01977831
254	0x02	0.007911324
255	0x11	0.06724625

sequential_1/dense_5/MatMul_bias f4 [192]
0	0x3cd33216	0.025780719
1	0x3e0f3fe8	0.13989222
2	0x3e4d9722	0.20077184
3	0xbcfa5d64	-0.03056211
4	0x3c9c959f	0.019114314
5	0x3e49c11b	0.1970257
6	0x3e0cb0e7	0.13739358
7	0x3e6e7d96	0.23290095
8	0xbd7c2223	-0.061555993
9	0xbe0b83f4	-0.13624555
10	0x3e5de2a0	0.21668482
11	0x3c69f3b2	0.014279293
12	0xbd2bee9d	-0.041975606
13	0xbd80f40a	-0.06296547
14	0x3dd3e75f	0.10346865
15	0x3d931170	0.0718106
16	0xbd50afd9	-0.05094895
17	0xbd40b647	-0.047048833
18	0xbe39ed09	-0.18156828
19	0x3d0fbaca	0.035090245
20	0xbe5a8f7e	-0.213438
21	0x3df4bf0c	0.11950502
22	0xbdf97fd0	-0.121825814
23	0x3e543a9c	0.20725483
24	0x3d7378d1	0.05944139
25	0xbd161678	-0.03664252
26	0xbdaeb3e3	-0.085304044
27	0xbe68a313	-0.22718458
28	0x3dbc30fb	0.0918903
29	0x3e34ef53	0.1766942
30	0x3c7e686a	0.015527824
31	0xbe7ee895	-0.2489341
32	0x3d49904c	0.049209878
33	0xbd05eb7e	-0.032695286
34	0xbe1528b7	-0.14566313
35	0xbdeeefd9	-0.11666841
36	0x3df452d4	0.11929861
37	0x3c5cd56a	0.013478616
38	0x3e10e446	0.1414958
39	0x39dbb026	0.00041902176
40	0xbe87e736	-0.26543587
41	0xbba5e31c	-0.005062474
42	0x3e71e914	0.23624068
43	0x3e2d310a	0.16913238
44	0xbc88b316	-0.016686957
45	0x3e1fcd21	0.15605594
46	0x3cac06d2	0.020999346
47	0xbe04be11	-0.1296313
48	0xbdd692c3	-0.10477211
49	0x3e7b87be	0.245635
50	0xbd403ac3	-0.04693104
51	0xbb74fcb9	-0.003738208
52	0x3de633fd	0.11240385
53	0xbd81376d	-0.063094
54	0x3e2f6d8c	0.17131633
55	0x3d867508	0.06565291
56	0xbbaf9673	-0.005358511
57	0xbd5cf5b6	-0.053945266
58	0xbe84e4e4	-0.2595588
59	0xbd8fce31	-0.0702175
60	0x3ddbd08d	0.10733137
61	0xbca6c3be	-0.020357009
62	0xbd3c704d	-0.046005536
63	0x3e28db6c	0.16489953
64	0x3d3be3c1	0.0458715
65	0xbd68c8ed	-0.056832243
66	0x3dfecade	0.124410376
67	0xbd6f52c0	-0.058428526
68	0xbd2a6447	-0.04159954
69	0x3e6015bc	0.21883291
70	0xbdd839b5	-0.10557882
71	0xbe32664f	-0.1742184
72	0x3dc442ec	0.09583077
73	0x3e7f54ad	0.24934645
74	0x3d4567b7	0.048194613
75	0xbe1cd54c	-0.15315741
76	0xbe3f7337	-0.18696295
77	0x3db62e5f	0.08895563
78	0x3db97a5d	0.09056542
79	0xbe0a33cc	-0.13496321
80	0xbe09bb82	-0.13450435
81	0x3e63880e	0.2221987
82	0x3e4fb1ac	0.2028262
83	0xbe214eed	-0.15752764
84	0xbe7840c9	-0.24243464
85	0xbe14f09e	-0.14544913
86	0xbe74a056	-0.23889288
87	0x3dd1facf	0.10252916
88	0x3e367aad	0.17820235
89	0x3d9817bc	0.07426402
90	0xbdd72ccc	-0.10506591
91	0x3d00786c	0.031364843
92	0xbc90e63a	-0.017687906
93	0xbdf98ae1	-0.12184692
94	0x3d8b036f	0.06787764
95	0x3e748d0a	0.23881927
96	0xbd0889d6	-0.033334576
97	0x3e066058	0.1312269
98	0x3e09878e	0.13430616
99	0xbe45f932	-0.19333342
100	0xbe1221d6	-0.1427072
101	0xbd959f2b	-0.073057495
102	0xbd6455fe	-0.05574607
103	0xbd471b03	-0.048609745
104	0xbe5280a2	-0.20556882
105	0xbd5fc133	-0.05462761
106	0x3d82a056	0.06378238
107	0x3e4983ea	0.19679227
108	0x3da1e33f	0.07904672
109	0xbdd549f6	-0.104144976
110	0xbd568b89	-0.052379165
111	0x3e1c9dab	0.1529452
112	0x3e8f29b8	0.27961516
113	0xbe5cbbe5	-0.21556051
114	0x3d254ab8	0.04035446
115	0xbe972e7b	-0.2952765
116	0xbdc58e54	-0.096462876
117	0xbb211979	-0.0024581833
118	0x3bb994d9	0.005663496
119	0xbddb8f1c	-0.10720655
120	0xbe40b35c	-0.1881842
121	0xbd54d094	-0.051956728
122	0x3db5c210	0.08874905
123	0xbdb4fc7b	-0.08837219
124	0x3e490de6	0.19634208
125	0x3dce7a5a	0.100819305
126	0xbb3256d8	-0.0027212407
127	0xbdbad88d	-0.09123335
128	0x3e8427d7	0.25811645
129	0x3d7d5723	0.06185068
130	0x3e40c52e	0.18825218
131	0xbda05051	-0.07827819
132	0xbe8f986c	-0.28045976
133	0xbd95fff5	-0.073242106
134	0x3d9fd041	0.07803393
135	0xbd3c788f	-0.04601341
136	0x3e63e394	0.22254783
137	0x3e2a0a74	0.1660555
138	0x3d51fc93	0.051266264
139	0xbe66e02f	-0.22546457
140	0x3e5cda0f	0.21567558
141	0x3cd95c49	0.026533263
142	0x3e93016d	0.28712025
143	0xbd3fd33b	-0.046832304
144	0x3e20a750	0.15688825
145	0x3e40a086	0.18811235
146	0xbdad50c4	-0.084626704
147	0x3c5b4ab5	0.013384511
148	0x3ddee525	0.108835496
149	0xbcb59c4b	-0.022169253
150	0xbd75c3ac	-0.06000106
151	0x3d5af17e	0.05345296
152	0x3dec2df7	0.115322046
153	0x3d388199	0.04504547
154	0x38173238	3.6047975e-05
155	0xbdf80992	-0.121112004
156	0x3e662a0a	0.22476974
157	0xbe0068e5	-0.12540014
158	0xbde44e1f	-0.11147713
159	0xbde6b65a	-0.112652496
160	0x3d86f986	0.065905616
161	0x3c071b51	0.008246259
162	0xbd8e6541	-0.069529064
163	0xbd29e81b	-0.04148112
164	0xbdd4fa51	-0.103993066
165	0x3d8dfdeb	0.06933197
166	0xbad95a81	-0.0016582758
167	0x3dc519b1	0.09624041
168	0x3d443150	0.04789859
169	0xbd9ae2fd	-0.07562826
170	0x3dc9933f	0.09842538
171	0xbe4f187b	-0.20224182
172	0xbea04ab8	-0.31307006
173	0xbd95be24	-0.07311657
174	0xbdec31da	-0.11532946
175	0x3de227a9	0.11042721
176	0x3de4eff8	0.11178583
177	0xbce6638a	-0.028123636
178	0xbdb3a07b	-0.087708436
179	0x3e8535c0	0.2601757
180	0xbe0a5ec9	-0.1351272
181	0x3978acf7	0.00023715557
182	0xbe4bdfa8	-0.19909537
183	0xbcdcf044	-0.026970036
184	0xbd615cc0	-0.055020094
185	0xbd856e37	-0.065151624
186	0x3de56a26	0.11201887
187	0xbc1d17db	-0.009588207
188	0x3dd059a4	0.101733476
189	0x3e14bacd	0.14524384
190	0xbb76dc2b	-0.0037667851
191	0x3d89cbd4	0.0672833

sequential_1/dense_6/MatMul/ReadVariableOp/transpose i1 [128, 192] scale=0.0034059035 zero_point=0
0	0xe1	-0.105583005
1	0xda	-0.12942433
2	0xbb	-0.23500735
3	0x02	0.006811807
4	0xf6	-0.034059033
5	0xf3	-0.044276744
6	0x0f	0.051088553
7	0x13	0.06471217
8	0xdf	-0.11239482
9	0xd1	-0.16007747
10	0xe5	-0.091959395
11	0xc9	-0.18732469
12	0xf0	-0.054494455
13	0x01	0.0034059035
14	0xe2	-0.102177106
15	0x1a	0.08855349
16	0xee	-0.06130626
17	0xd6	-0.14304794
18	0xca	-0.18391879
19	0xc7	-0.1941365
20	0xfe	-0.006811807
21	0xc9	-0.18732469
22	0xe1	-0.105583005
23	0x02	0.006811807
24	0x32	0.17029518
25	0xdd	-0.11920662
26	0x10	0.054494455
27	0xfc	-0.013623614
28	0x08	0.027247228
29	0xfe	-0.006811807
30	0x23	0.11920662
31	0xf3	-0.044276744
32	0x26	0.12942433
33	0xfa	-0.02043542
34	0x0c	0.04087084
35	0xea	-0.07492988
36	0xe7	-0.08514759
37	0xc9	-0.18732469
38	0x07	0.023841325
39	0xfe	-0.006811807
40	0xfe	-0.006811807
41	0xa4	-0.3133431
42	0x1c	0.0953653
43	0x1f	0.105583005
44	0x20	0.10898891
45	0xf0	-0.054494455
46	0xda	-0.12942433
47	0x38	0.1907306
48	0x31	0.16688927
49	0x31	0.16688927
50	0x09	0.03065313
51	0x16	0.07492988
52	0x01	0.0034059035
53	0x02	0.006811807
54	0x00	0.0
55	0xc3	-0.20776011
56	0x1e	0.102177106
57	0xe7	-0.08514759
58	0x28	0.13623613
59	0x1c	0.0953653
60	0x2a	0.14304794
61	0xdc	-0.12261252
62	0xe4	-0.0953653
63	0xf1	-0.051088553
64	0x30	0.16348337
65	0xd7	-0.13964204
66	0x05	0.017029516
67	0xef	-0.057900358
68	0x19	0.08514759
69	0xc7	-0.1941365
70	0x17	0.07833578
71	0x02	0.006811807
72	0xee	-0.06130626
73	0x2f	0.16007747
74	0xde	-0.115800716
75	0x25	0.12601843
76	0xea	-0.07492988
77	0x27	0.13283023
78	0x11	0.057900358
79	0xf0	-0.054494455
80	0x40	0.21797782
81	0xe6	-0.08855349
82	0x14	0.068118066
83	0x1f	0.105583005
84	0xc9	-0.18732469
85	0x16	0.07492988
86	0xe0	-0.10898891
87	0xf4	-0.04087084
88	0x1b	0.091959395
89	0xe0	-0.10898891
90	0xdf	-0.11239482
91	0xd5	-0.14645384
92	0x0a	0.034059033
93	0xf0	-0.054494455
94	0xde	-0.115800716
95	0x32	0.17029518
96	0xf7	-0.03065313
97	0x08	0.027247228
98	0xed	-0.06471217
99	0xec	-0.068118066
100	0xb6	-0.25203687
101	0xf3	-0.044276744
102	0xdc	-0.12261252
103	0xfe	-0.006811807
104	0xce	-0.17029518
105	0x00	0.0
106	0xe1	-0.105583005
107	0x04	0.013623614
108	0xc7	-0.1941365
109	0xe3	-0.0987712
110	0xfb	-0.017029516
111	0xdf	-0.11239482
112	0x26	0.12942433
113	0x0e	0.04768265
114	0xca	-0.18391879
115	0x1a	0.08855349
116	0x1d	0.0987712
117	0xa9	-0.2963136
118	0x0f	0.051088553
119	0x45	0.23500735
120	0xf0	-0.054494455
121	0xf7	-0.03065313
122	0x17	0.07833578
123	0x1f	0.105583005
124	0x13	0.06471217
125	0x09	0.03065313
126	0xc7	-0.1941365
127	0x3d	0.20776011
128	0xdc	-0.12261252
129	0xf1	-0.051088553
130	0x03	0.01021771
131	0xfb	-0.017029516
132	0xe2	-0.102177106
133	0x0c	0.04087084
134	0xe5	-0.091959395
135	0x0e	0.04768265
136	0x02	0.006811807
137	0x16	0.07492988
138	0x09	0.03065313
139	0xee	-0.06130626
140	0xe4	-0.0953653
141	0x19	0.08514759
142	0x17	0.07833578
143	0xd9	-0.13283023
144	0x02	0.006811807
145	0xf6	-0.034059033
146	0xe0	-0.10898891
147	0xc1	-0.21457192
148	0xf5	-0.03746494
149	0xee	-0.06130626
150	0x18	0.08174168
151	0x10	0.054494455
152	0x14	0.068118066
153	0x05	0.017029516
154	0x2f	0.16007747
155	0xf6	-0.034059033
156	0xfd	-0.01021771
157	0xd8	-0.13623613
158	0x04	0.013623614
159	0x12	0.06130626
160	0x04	0.013623614
161	0x04	0.013623614
162	0xe4	-0.0953653
163	0xec	-0.068118066
164	0xe0	-0.10898891
165	0xf2	-0.04768265
166	0xf5	-0.03746494
167	0xa5	-0.3099372
168	0xe5	-0.091959395
169	0xf6	-0.034059033
170	0x02	0.006811807
171	0xd6	-0.14304794
172	0xdb	-0.12601843
173	0xe0	-0.10898891
174	0xff	-0.0034059035
175	0xfc	-0.013623614
176	0x09	0.03065313
177	0xf4	-0.04087084
178	0xed	-0.06471217
179	0x0c	0.04087084
180	0xe1	-0.105583005
181	0xdb	-0.12601843
182	0xd5	-0.14645384
183	0xf5	-0.03746494
184	0x25	0.12601843
185	0xe6	-0.08855349
186	0x36	0.18391879
187	0xa9	-0.2963136
188	0xbd	-0.22819553
189	0x04	0.013623614
190	0x2e	0.15667155
191	0x0e	0.04768265
192	0xd3	-0.15326566
193	0xeb	-0.07152397
194	0xed	-0.06471217
195	0xe6	-0.08855349
196	0x25	0.12601843
197	0x06	0.02043542
198	0xf8	-0.027247228
199	0x03	0.01021771
200	0xf1	-0.051088553
201	0x13	0.06471217
202	0x28	0.13623613
203	0xf3	-0.044276744
204	0xf4	-0.04087084
205	0xf6	-0.034059033
206	0x29	0.13964204
207	0xd0	-0.16348337
208	0xe6	-0.08855349
209	0xd0	-0.16348337
210	0x09	0.03065313
211	0xc2	-0.21116601
212	0x28	0.13623613
213	0x0b	0.03746494
214	0xd6	-0.14304794
215	0x13	0.06471217
216	0xe0	-0.10898891
217	0xeb	-0.07152397
218	0xfe	-0.006811807
219	0xdc	-0.12261252
220	0xf9	-0.023841325
221	0x1c	0.0953653
222	0xe8	-0.08174168
223	0xe3	-0.0987712
224	0x2c	0.14985976
225	0xe2	-0.102177106
226	0xc2	-0.21116601
227	0x0c	0.04087084
228	0x19	0.08514759
229	0x24	0.12261252
230	0x05	0.017029516
231	0xf6	-0.034059033
232	0xfd	-0.01021771
233	0x29	0.13964204
234	0x2c	0.14985976
235	0x0b	0.03746494
236	0x07	0.023841325
237	0x2b	0.14645384
238	0xea	-0.07492988
239	0x06	0.02043542
240	0x0b	0.03746494
241	0x0f	0.051088553
242	0x23	0.11920662
243	0x0e	0.04768265
244	0x36	0.18391879
245	0xd0	-0.16348337
246	0x16	0.07492988
247	0x22	0.115800716
248	0xd0	-0.16348337
249	0xac	-0.2860959
250	0x08	0.027247228
251	0x0a	0.034059033
252	0x29	0.13964204
253	0x07	0.023841325
254	0x17	0.07833578
255	0xfb	-0.017029516

sequential_1/dense_6/MatMul_bias f4 [128]
0	0x3e339a91	0.17539431
1	0x3e81bd05	0.25339523
2	0xbd73f8be	-0.05956339
3	0x3e8a8d87	0.27061102
4	0xbdd69de8	-0.10479337
5	0x3decd186	0.11563401
6	0x3e5ab825	0.21359308
7	0xbd2edcc5	-0.04269101
8	0xbe1757c0	-0.14779568
9	0x3dea52e3	0.11441591
10	0xbd931d99	-0.0718338
11	0xbcbd1855	-0.023082891
12	0xbdb885e1	-0.090099104
13	0xbcb04589	-0.021517532
14	0xbc78118f	-0.015140905
15	0x3c2b32bd	0.010449109
16	0x3da659dd	0.08122609
17	0x3ddd7526	0.1081336
18	0xbe2268eb	-0.15860336
19	0xbe1910a8	-0.1494776
20	0xbe0afb8d	-0.13572522
21	0x3e6b3bd3	0.2297204
22	0xbdd24f72	-0.10269059
23	0xbd18592e	-0.037194423
24	0x3e2f473e	0.1711702
25	0xbc21a0cb	-0.009864996
26	0x3c29f432	0.010373162
27	0x3de70f28	0.11282188
28	0xbd99b9fc	-0.07506177
29	0x3e896a98	0.26839137
30	0xbd984d76	-0.074366495
31	0x3e56c78f	0.20974563
32	0x3e27d59a	0.16390076
33	0xbe21a4cc	-0.15785521
34	0x3e1e6dbe	0.15471551
35	0x3dbb5317	0.091467075
36	0x3bc13565	0.0058962577
37	0xbc540e8a	-0.0129429195
38	0xbc13b11c	-0.009014394
39	0x3d2a0480	0.041508198
40	0x3e6b22f4	0.22962552
41	0xbe1cad15	-0.153004
42	0x3e61fc1e	0.22068831
43	0x3e151c4f	0.1456158
44	0x3cbd4db7	0.023108346
45	0x3e112270	0.14173293
46	0x3e13f56b	0.14449088
47	0x3c103398	0.008801363
48	0x3e2bf86e	0.16793987
49	0xbd8e40b4	-0.06945935
50	0xbe2b1f23	-0.16711096
51	0x3df00a66	0.11720733
52	0xbdbf3cd9	-0.09337778
53	0x3dd31995	0.10307614
54	0x3dbb34d8	0.091409385
55	0x3e0f6937	0.1400498
56	0xbe10434f	-0.14088176
57	0x3e4514a8	0.19246161
58	0xbdf861d5	-0.12128035
59	0x3d9a79fd	0.07542799
60	0xbe4d7f4b	-0.2006809
61	0xbe39516b	-0.18097465
62	0xbe56a90e	-0.20962927
63	0x3c09a3aa	0.008400837
64	0xbcd25213	-0.025673902
65	0x3e5ad0ac	0.21368665
66	0xbd4ed5ce	-0.05049687
67	0xbca6d2ca	-0.020364184
68	0xbd538346	-0.051638864
69	0x3dc5a8a6	0.09651308
70	0xbcb0b8db	-0.021572521
71	0x3bb0aa7a	0.005391416
72	0xbd6a7fe1	-0.05725086
73	0xbc9e3f63	-0.019317335
74	0x3df7a8a7	0.12092715
75	0x3defc848	0.117081225
76	0xbcb1ef8c	-0.02172067
77	0x3dc8fbc1	0.09813643
78	0x3c284eca	0.010272691
79	0xbdf8a159	-0.121401496
80	0xbc9b8b3b	-0.018987289
81	0xbd8dc979	-0.069231935
82	0xbd1f1e86	-0.03884747
83	0xbd81241d	-0.06305716
84	0x3d6e5c53	0.058193516
85	0x3e076303	0.13221364
86	0x3e60e5b9	0.21962632
87	0xbd71522e	-0.058916263
88	0x3eadeb66	0.33968657
89	0x3e771948	0.24130738
90	0x3d2ff3cd	0.042957116
91	0xbce78d31	-0.028265567
92	0xbd52b014	-0.051437452
93	0x3e73f520	0.23823977
94	0x3e642853	0.22281007
95	0xbe07af9c	-0.13250583
96	0x3e32b64c	0.17452353
97	0xbdc2387f	-0.09483432
98	0xbd27f1cb	-0.041002076
99	0xbce14116	-0.027496856
100	0xbe08dbb9	-0.13365068
101	0xbce0cc4a	-0.027441163
102	0xbd878d79	-0.06618781
103	0x3e083ddc	0.13304847
104	0xbb4b7c4b	-0.0031049426
105	0x3e209cde	0.1568484
106	0x3d892936	0.066973135
107	0xbe8322cd	-0.25612488
108	0x3acb97d0	0.0015532915
109	0xbbc3a0c3	-0.005970092
110	0x3cfe5041	0.031044127
111	0xbe4efc1d	-0.20213361
112	0x3d250f41	0.04029775
113	0xbe735a6a	-0.23764959
114	0xbd9e9d39	-0.077448316
115	0xbe0946bc	-0.1340589
116	0x3e508aa8	0.20365393
117	0x3cd23e2b	0.02566441
118	0x3e3f6ccb	0.18693845
119	0xbe0e4b53	-0.13895921
120	0xbd6c6640	-0.0577147
121	0x3e84cec3	0.25938997
122	0xbdea3f84	-0.11437896
123	0xbdbe9737	-0.09306186
124	0x3da2110d	0.079134084
125	0x3e2e2aff	0.17008589
126	0xbd95966f	-0.073040836
127	0xbcdf463a	-0.027255166

sequential_1/dense_7/MatMul/ReadVariableOp/transpose i1 [10, 128] scale=0.0043741493 zero_point=0
0	0x07	0.030619044
1	0x1b	0.11810203
2	0x0f	0.06561224
3	0x33	0.22308162
4	0xdb	-0.16184352
5	0xbd	-0.293068
6	0xef	-0.074360535
7	0x15	0.091857135
8	0xc3	-0.2668231
9	0x0e	0.061238088
10	0xfb	-0.021870747
11	0x0f	0.06561224
12	0x2a	0.18371427
13	0x2c	0.19246256
14	0x0c	0.05248979
15	0x23	0.15309523
16	0xcf	-0.21433331
17	0xdc	-0.15746938
18	0xde	-0.14872107
19	0x24	0.15746938
20	0xe9	-0.100605436
21	0xc5	-0.25807482
22	0xc1	-0.2755714
23	0xe9	-0.100605436
24	0xe5	-0.11810203
25	0xed	-0.083108835
26	0xca	-0.23620406
27	0x32	0.21870746
28	0xc9	-0.2405782
29	0x11	0.074360535
30	0xf3	-0.05686394
31	0xe1	-0.13559863
32	0x15	0.091857135
33	0xea	-0.09623128
34	0x0e	0.061238088
35	0x1c	0.122476175
36	0x2f	0.20558502
37	0xfd	-0.013122448
38	0x0b	0.04811564
39	0x08	0.034993194
40	0x17	0.100605436
41	0xe8	-0.10497958
42	0x07	0.030619044
43	0xdc	-0.15746938
44	0x20	0.13997278
45	0x1e	0.13122448
46	0x19	0.10935373
47	0x32	0.21870746
48	0xc5	-0.25807482
49	0xe7	-0.10935373
50	0xe4	-0.122476175
51	0x22	0.14872107
52	0xe4	-0.122476175
53	0xd8	-0.17496598
54	0x09	0.039367344
55	0x19	0.10935373
56	0x28	0.17496598
57	0x08	0.034993194
58	0x16	0.09623128
59	0xd2	-0.20121087
60	0xea	-0.09623128
61	0xe3	-0.12685032
62	0xee	-0.07873469
63	0x13	0.083108835
64	0xed	-0.083108835
65	0x1f	0.13559863
66	0x09	0.039367344
67	0x02	0.0087482985
68	0xba	-0.30619046
69	0xc6	-0.25370064
70	0xde	-0.14872107
71	0xe2	-0.13122448
72	0xd7	-0.17934012
73	0xd7	-0.17934012
74	0xd9	-0.17059182
75	0x2c	0.19246256
76	0xd9	-0.17059182
77	0x1c	0.122476175
78	0xea	-0.09623128
79	0xe4	-0.122476175
80	0x17	0.100605436
81	0xe2	-0.13122448
82	0x2d	0.19683671
83	0xf0	-0.06998639
84	0xd0	-0.20995916
85	0xd9	-0.17059182
86	0xec	-0.08748299
87	0xf5	-0.04811564
88	0x29	0.17934012
89	0x28	0.17496598
90	0xf8	-0.034993194
91	0x0f	0.06561224
92	0x17	0.100605436
93	0xe7	-0.10935373
94	0xf9	-0.030619044
95	0xce	-0.21870746
96	0x38	0.24495235
97	0x20	0.13997278
98	0x18	0.10497958
99	0x23	0.15309523
100	0xf0	-0.06998639
101	0x16	0.09623128
102	0x1c	0.122476175
103	0x01	0.0043741493
104	0x27	0.17059182
105	0xef	-0.074360535
106	0x2d	0.19683671
107	0xf6	-0.043741494
108	0xf1	-0.06561224
109	0x0f	0.06561224
110	0xd2	-0.20121087
111	0x16	0.09623128
112	0x08	0.034993194
113	0xcc	-0.22745577
114	0xd0	-0.20995916
115	0xc8	-0.24495235
116	0x06	0.026244896
117	0x0e	0.061238088
118	0x03	0.013122448
119	0x2a	0.18371427
120	0xe2	-0.13122448
121	0xea	-0.09623128
122	0x32	0.21870746
123	0xeb	-0.091857135
124	0x2a	0.18371427
125	0x1f	0.13559863
126	0x09	0.039367344
127	0xca	-0.23620406
128	0x2b	0.18808842
129	0xe5	-0.11810203
130	0x0d	0.05686394
131	0xca	-0.23620406
132	0x1e	0.13122448
133	0x22	0.14872107
134	0xe0	-0.13997278
135	0xe7	-0.10935373
136	0x2b	0.18808842
137	0xeb	-0.091857135
138	0xd3	-0.19683671
139	0x14	0.08748299
140	0x08	0.034993194
141	0x25	0.16184352
142	0xe6	-0.11372788
143	0x25	0.16184352
144	0x1e	0.13122448
145	0xe0	-0.13997278
146	0xee	-0.07873469
147	0xee	-0.07873469
148	0xfe	-0.0087482985
149	0xda	-0.16621767
150	0xfe	-0.0087482985
151	0x03	0.013122448
152	0x09	0.039367344
153	0xd5	-0.18808842
154	0x10	0.06998639
155	0xe6	-0.11372788
156	0xfa	-0.026244896
157	0xc0	-0.27994555
158	0xde	-0.14872107
159	0xcb	-0.23182991
160	0x1f	0.13559863
161	0x08	0.034993194
162	0xec	-0.08748299
163	0xd4	-0.19246256
164	0xd5	-0.18808842
165	0x07	0.030619044
166	0x17	0.100605436
167	0x22	0.14872107
168	0xf1	-0.06561224
169	0x14	0.08748299
170	0x10	0.06998639
171	0xe9	-0.100605436
172	0x3e	0.27119726
173	0xce	-0.21870746
174	0x20	0.13997278
175	0xcf	-0.21433331
176	0x10	0.06998639
177	0x01	0.0043741493
178	0x31	0.21433331
179	0x00	0.0
180	0xda	-0.16621767
181	0x12	0.07873469
182	0x06	0.026244896
183	0x33	0.22308162
184	0x30	0.20995916
185	0x19	0.10935373
186	0xc8	-0.24495235
187	0xb1	-0.34555778
188	0x33	0.22308162
189	0xe4	-0.122476175
190	0x32	0.21870746
191	0xdb	-0.16184352
192	0xdc	-0.15746938
193	0xf0	-0.06998639
194	0xdc	-0.15746938
195	0xda	-0.16621767
196	0xbc	-0.29744214
197	0xbc	-0.29744214
198	0xfd	-0.013122448
199	0xda	-0.16621767
200	0xcc	-0.22745577
201	0x14	0.08748299
202	0x0c	0.05248979
203	0xdb	-0.16184352
204	0xec	-0.08748299
205	0xd9	-0.17059182
206	0x26	0.16621767
207	0x30	0.20995916
208	0xe8	-0.10497958
209	0xeb	-0.091857135
210	0x02	0.0087482985
211	0xf3	-0.05686394
212	0x23	0.15309523
213	0x06	0.026244896
214	0xe0	-0.13997278
215	0x12	0.07873469
216	0xc5	-0.25807482
217	0xc5	-0.25807482
218	0x28	0.17496598
219	0xfd	-0.013122448
220	0xc3	-0.2668231
221	0xc9	-0.2405782
222	0xd8	-0.17496598
223	0xf2	-0.061238088
224	0xfb	-0.021870747
225	0xe8	-0.10497958
226	0xba	-0.30619046
227	0xf1	-0.06561224
228	0xb4	-0.33243534
229	0xe8	-0.10497958
230	0x2b	0.18808842
231	0xef	-0.074360535
232	0xec	-0.08748299
233	0x16	0.09623128
234	0x2d	0.19683671
235	0xe6	-0.11372788
236	0xef	-0.074360535
237	0x27	0.17059182
238	0x05	0.021870747
239	0x32	0.21870746
240	0xeb	-0.091857135
241	0x40	0.27994555
242	0x18	0.10497958
243	0xfb	-0.021870747
244	0x10	0.06998639
245	0x39	0.24932651
246	0xde	-0.14872107
247	0xdc	-0.15746938
248	0x2c	0.19246256
249	0x10	0.06998639
250	0x31	0.21433331
251	0x00	0.0
252	0x06	0.026244896
253	0xd4	-0.19246256
254	0xac	-0.36742854
255	0x21	0.14434692

sequential_1/dense_7/MatMul_bias f4 [10]
0	0x3beeff07	0.007293585
1	0xbe325c91	-0.17418124
2	0x3e1292f5	0.14313872
3	0x3dd1f7da	0.10252352
4	0xbe4b4563	-0.19850688
5	0x3e05f143	0.13080315
6	0x3e28ee18	0.16497076
7	0x3df10e13	0.117702626
8	0xbe058909	-0.13040556
9	0xbe4ac938	-0.19803321
